…
__________________________________________________________________________________________________
 Layer (type)                   Output Shape         Param #     Connected to                     
==================================================================================================
 input_1 (InputLayer)           [(None, 91, 109, 91  0           []                               
                                , 1)]                                                             
                                                                                                  
 model (Functional)             (None, 2535, 128)    44032       ['input_1[0][0]']                
                                                                                                  
 tf.__operators__.add (TFOpLamb  (None, 2535, 128)   0           ['model[0][0]']                  
 da)                                                                                              
                                                                                                  
 multi_head_attention (MultiHea  (None, 2535, 128)   527488      ['tf.__operators__.add[0][0]',   
 dAttention)                                                      'tf.__operators__.add[0][0]']   
                                                                                                  
 dropout (Dropout)              (None, 2535, 128)    0           ['multi_head_attention[0][0]']   
                                                                                                  
 add (Add)                      (None, 2535, 128)    0           ['tf.__operators__.add[0][0]',   
                                                                  'dropout[0][0]']                
                                                                                                  
 layer_normalization (LayerNorm  (None, 2535, 128)   256         ['add[0][0]']                    
 alization)                                                                                       
                                                                                                  
 dense (Dense)                  (None, 2535, 256)    33024       ['layer_normalization[0][0]']    
                                                                                                  
 dense_1 (Dense)                (None, 2535, 128)    32896       ['dense[0][0]']                  
                                                                                                  
 dropout_1 (Dropout)            (None, 2535, 128)    0           ['dense_1[0][0]']                
                                                                                                  
 add_1 (Add)                    (None, 2535, 128)    0           ['layer_normalization[0][0]',    
                                                                  'dropout_1[0][0]']              
                                                                                                  
 layer_normalization_1 (LayerNo  (None, 2535, 128)   256         ['add_1[0][0]']                  
 rmalization)                                                                                     
                                                                                                  
 multi_head_attention_1 (MultiH  (None, 2535, 128)   527488      ['layer_normalization_1[0][0]',  
 eadAttention)                                                    'layer_normalization_1[0][0]']  
                                                                                                  
 dropout_2 (Dropout)            (None, 2535, 128)    0           ['multi_head_attention_1[0][0]'] 
                                                                                                  
 add_2 (Add)                    (None, 2535, 128)    0           ['layer_normalization_1[0][0]',  
                                                                  'dropout_2[0][0]']              
                                                                                                  
 layer_normalization_2 (LayerNo  (None, 2535, 128)   256         ['add_2[0][0]']                  
 rmalization)                                                                                     
                                                                                                  
 dense_2 (Dense)                (None, 2535, 256)    33024       ['layer_normalization_2[0][0]']  
                                                                                                  
 dense_3 (Dense)                (None, 2535, 128)    32896       ['dense_2[0][0]']                
                                                                                                  
 dropout_3 (Dropout)            (None, 2535, 128)    0           ['dense_3[0][0]']                
                                                                                                  
 add_3 (Add)                    (None, 2535, 128)    0           ['layer_normalization_2[0][0]',  
                                                                  'dropout_3[0][0]']              
                                                                                                  
 layer_normalization_3 (LayerNo  (None, 2535, 128)   256         ['add_3[0][0]']                  
 rmalization)                                                                                     
                                                                                                  
 multi_head_attention_2 (MultiH  (None, 2535, 128)   527488      ['layer_normalization_3[0][0]',  
 eadAttention)                                                    'layer_normalization_3[0][0]']  
                                                                                                  
 dropout_4 (Dropout)            (None, 2535, 128)    0           ['multi_head_attention_2[0][0]'] 
                                                                                                  
 add_4 (Add)                    (None, 2535, 128)    0           ['layer_normalization_3[0][0]',  
                                                                  'dropout_4[0][0]']              
                                                                                                  
 layer_normalization_4 (LayerNo  (None, 2535, 128)   256         ['add_4[0][0]']                  
 rmalization)                                                                                     
                                                                                                  
 dense_4 (Dense)                (None, 2535, 256)    33024       ['layer_normalization_4[0][0]']  
                                                                                                  
 dense_5 (Dense)                (None, 2535, 128)    32896       ['dense_4[0][0]']                
                                                                                                  
 dropout_5 (Dropout)            (None, 2535, 128)    0           ['dense_5[0][0]']                
                                                                                                  
 add_5 (Add)                    (None, 2535, 128)    0           ['layer_normalization_4[0][0]',  
                                                                  'dropout_5[0][0]']              
                                                                                                  
 layer_normalization_5 (LayerNo  (None, 2535, 128)   256         ['add_5[0][0]']                  
 rmalization)                                                                                     
                                                                                                  
 flatten (Flatten)              (None, 324480)       0           ['layer_normalization_5[0][0]']  
                                                                                                  
 dropout_6 (Dropout)            (None, 324480)       0           ['flatten[0][0]']                
                                                                                                  
 dense_6 (Dense)                (None, 2)            648962      ['dropout_6[0][0]']              
                                                                                                  
==================================================================================================
Total params: 2,474,754
Trainable params: 2,474,754
Non-trainable params: 0
__________________________________________________________________________________________________
…
