…
__________________________________________________________________________________________________
 Layer (type)                   Output Shape         Param #     Connected to                     
==================================================================================================
 input_1 (InputLayer)           [(None, 128, 128, 1  0           []                               
                                28, 1)]                                                           
                                                                                                  
 model (Functional)             (None, 512, 256)     1048832     ['input_1[0][0]']                
                                                                                                  
 class_token (ClassToken)       (None, 513, 256)     256         ['model[0][0]']                  
                                                                                                  
 add_position_embs (AddPosition  (None, 513, 256)    131328      ['class_token[0][0]']            
 Embs)                                                                                            
                                                                                                  
 layer_normalization (LayerNorm  (None, 513, 256)    512         ['add_position_embs[0][0]']      
 alization)                                                                                       
                                                                                                  
 multi_head_attention (MultiHea  (None, 513, 256)    263168      ['layer_normalization[0][0]',    
 dAttention)                                                      'layer_normalization[0][0]']    
                                                                                                  
 dropout (Dropout)              (None, 513, 256)     0           ['multi_head_attention[0][0]']   
                                                                                                  
 add (Add)                      (None, 513, 256)     0           ['add_position_embs[0][0]',      
                                                                  'dropout[0][0]']                
                                                                                                  
 layer_normalization_1 (LayerNo  (None, 513, 256)    512         ['add[0][0]']                    
 rmalization)                                                                                     
                                                                                                  
 dense (Dense)                  (None, 513, 128)     32896       ['layer_normalization_1[0][0]']  
                                                                                                  
 dropout_1 (Dropout)            (None, 513, 128)     0           ['dense[0][0]']                  
                                                                                                  
 dense_1 (Dense)                (None, 513, 256)     33024       ['dropout_1[0][0]']              
                                                                                                  
 dropout_2 (Dropout)            (None, 513, 256)     0           ['dense_1[0][0]']                
                                                                                                  
 add_1 (Add)                    (None, 513, 256)     0           ['add[0][0]',                    
                                                                  'dropout_2[0][0]']              
                                                                                                  
 layer_normalization_2 (LayerNo  (None, 513, 256)    512         ['add_1[0][0]']                  
 rmalization)                                                                                     
                                                                                                  
 multi_head_attention_1 (MultiH  (None, 513, 256)    263168      ['layer_normalization_2[0][0]',  
 eadAttention)                                                    'layer_normalization_2[0][0]']  
                                                                                                  
 dropout_3 (Dropout)            (None, 513, 256)     0           ['multi_head_attention_1[0][0]'] 
                                                                                                  
 add_2 (Add)                    (None, 513, 256)     0           ['add_1[0][0]',                  
                                                                  'dropout_3[0][0]']              
                                                                                                  
 layer_normalization_3 (LayerNo  (None, 513, 256)    512         ['add_2[0][0]']                  
 rmalization)                                                                                     
                                                                                                  
 dense_2 (Dense)                (None, 513, 128)     32896       ['layer_normalization_3[0][0]']  
                                                                                                  
 dropout_4 (Dropout)            (None, 513, 128)     0           ['dense_2[0][0]']                
                                                                                                  
 dense_3 (Dense)                (None, 513, 256)     33024       ['dropout_4[0][0]']              
                                                                                                  
 dropout_5 (Dropout)            (None, 513, 256)     0           ['dense_3[0][0]']                
                                                                                                  
 add_3 (Add)                    (None, 513, 256)     0           ['add_2[0][0]',                  
                                                                  'dropout_5[0][0]']              
                                                                                                  
 layer_normalization_4 (LayerNo  (None, 513, 256)    512         ['add_3[0][0]']                  
 rmalization)                                                                                     
                                                                                                  
 multi_head_attention_2 (MultiH  (None, 513, 256)    263168      ['layer_normalization_4[0][0]',  
 eadAttention)                                                    'layer_normalization_4[0][0]']  
                                                                                                  
 dropout_6 (Dropout)            (None, 513, 256)     0           ['multi_head_attention_2[0][0]'] 
                                                                                                  
 add_4 (Add)                    (None, 513, 256)     0           ['add_3[0][0]',                  
                                                                  'dropout_6[0][0]']              
                                                                                                  
 layer_normalization_5 (LayerNo  (None, 513, 256)    512         ['add_4[0][0]']                  
 rmalization)                                                                                     
                                                                                                  
 dense_4 (Dense)                (None, 513, 128)     32896       ['layer_normalization_5[0][0]']  
                                                                                                  
 dropout_7 (Dropout)            (None, 513, 128)     0           ['dense_4[0][0]']                
                                                                                                  
 dense_5 (Dense)                (None, 513, 256)     33024       ['dropout_7[0][0]']              
                                                                                                  
 dropout_8 (Dropout)            (None, 513, 256)     0           ['dense_5[0][0]']                
                                                                                                  
 add_5 (Add)                    (None, 513, 256)     0           ['add_4[0][0]',                  
                                                                  'dropout_8[0][0]']              
                                                                                                  
 layer_normalization_6 (LayerNo  (None, 513, 256)    512         ['add_5[0][0]']                  
 rmalization)                                                                                     
                                                                                                  
 multi_head_attention_3 (MultiH  (None, 513, 256)    263168      ['layer_normalization_6[0][0]',  
 eadAttention)                                                    'layer_normalization_6[0][0]']  
                                                                                                  
 dropout_9 (Dropout)            (None, 513, 256)     0           ['multi_head_attention_3[0][0]'] 
                                                                                                  
 add_6 (Add)                    (None, 513, 256)     0           ['add_5[0][0]',                  
                                                                  'dropout_9[0][0]']              
                                                                                                  
 layer_normalization_7 (LayerNo  (None, 513, 256)    512         ['add_6[0][0]']                  
 rmalization)                                                                                     
                                                                                                  
 dense_6 (Dense)                (None, 513, 128)     32896       ['layer_normalization_7[0][0]']  
                                                                                                  
 dropout_10 (Dropout)           (None, 513, 128)     0           ['dense_6[0][0]']                
                                                                                                  
 dense_7 (Dense)                (None, 513, 256)     33024       ['dropout_10[0][0]']             
                                                                                                  
 dropout_11 (Dropout)           (None, 513, 256)     0           ['dense_7[0][0]']                
                                                                                                  
 add_7 (Add)                    (None, 513, 256)     0           ['add_6[0][0]',                  
                                                                  'dropout_11[0][0]']             
                                                                                                  
 layer_normalization_8 (LayerNo  (None, 513, 256)    512         ['add_7[0][0]']                  
 rmalization)                                                                                     
                                                                                                  
 tf.__operators__.getitem (Slic  (None, 256)         0           ['layer_normalization_8[0][0]']  
 ingOpLambda)                                                                                     
                                                                                                  
 dense_8 (Dense)                (None, 2)            514         ['tf.__operators__.getitem[0][0]'
                                                                 ]                                
                                                                                                  
==================================================================================================
Total params: 2,501,890
Trainable params: 2,501,890
Non-trainable params: 0
…
__________________________________________________________________________________________________
 Layer (type)                   Output Shape         Param #     Connected to                     
==================================================================================================
 input_3 (InputLayer)           [(None, 128, 128, 1  0           []                               
                                28, 1)]                                                           
                                                                                                  
 model_2 (Functional)           (None, 4096, 64)     32832       ['input_3[0][0]']                
                                                                                                  
 class_token_1 (ClassToken)     (None, 4097, 64)     64          ['model_2[0][0]']                
                                                                                                  
 add_position_embs_1 (AddPositi  (None, 4097, 64)    262208      ['class_token_1[0][0]']          
 onEmbs)                                                                                          
                                                                                                  
 layer_normalization_9 (LayerNo  (None, 4097, 64)    128         ['add_position_embs_1[0][0]']    
 rmalization)                                                                                     
                                                                                                  
 multi_head_attention_4 (MultiH  (None, 4097, 64)    16640       ['layer_normalization_9[0][0]',  
 eadAttention)                                                    'layer_normalization_9[0][0]']  
                                                                                                  
 dropout_12 (Dropout)           (None, 4097, 64)     0           ['multi_head_attention_4[0][0]'] 
                                                                                                  
 add_8 (Add)                    (None, 4097, 64)     0           ['add_position_embs_1[0][0]',    
                                                                  'dropout_12[0][0]']             
                                                                                                  
 layer_normalization_10 (LayerN  (None, 4097, 64)    128         ['add_8[0][0]']                  
 ormalization)                                                                                    
                                                                                                  
 dense_9 (Dense)                (None, 4097, 128)    8320        ['layer_normalization_10[0][0]'] 
                                                                                                  
 dropout_13 (Dropout)           (None, 4097, 128)    0           ['dense_9[0][0]']                
                                                                                                  
 dense_10 (Dense)               (None, 4097, 64)     8256        ['dropout_13[0][0]']             
                                                                                                  
 dropout_14 (Dropout)           (None, 4097, 64)     0           ['dense_10[0][0]']               
                                                                                                  
 add_9 (Add)                    (None, 4097, 64)     0           ['add_8[0][0]',                  
                                                                  'dropout_14[0][0]']             
                                                                                                  
 layer_normalization_11 (LayerN  (None, 4097, 64)    128         ['add_9[0][0]']                  
 ormalization)                                                                                    
                                                                                                  
 multi_head_attention_5 (MultiH  (None, 4097, 64)    16640       ['layer_normalization_11[0][0]', 
 eadAttention)                                                    'layer_normalization_11[0][0]'] 
                                                                                                  
 dropout_15 (Dropout)           (None, 4097, 64)     0           ['multi_head_attention_5[0][0]'] 
                                                                                                  
 add_10 (Add)                   (None, 4097, 64)     0           ['add_9[0][0]',                  
                                                                  'dropout_15[0][0]']             
                                                                                                  
 layer_normalization_12 (LayerN  (None, 4097, 64)    128         ['add_10[0][0]']                 
 ormalization)                                                                                    
                                                                                                  
 dense_11 (Dense)               (None, 4097, 128)    8320        ['layer_normalization_12[0][0]'] 
                                                                                                  
 dropout_16 (Dropout)           (None, 4097, 128)    0           ['dense_11[0][0]']               
                                                                                                  
 dense_12 (Dense)               (None, 4097, 64)     8256        ['dropout_16[0][0]']             
                                                                                                  
 dropout_17 (Dropout)           (None, 4097, 64)     0           ['dense_12[0][0]']               
                                                                                                  
 add_11 (Add)                   (None, 4097, 64)     0           ['add_10[0][0]',                 
                                                                  'dropout_17[0][0]']             
                                                                                                  
 layer_normalization_13 (LayerN  (None, 4097, 64)    128         ['add_11[0][0]']                 
 ormalization)                                                                                    
                                                                                                  
 multi_head_attention_6 (MultiH  (None, 4097, 64)    16640       ['layer_normalization_13[0][0]', 
 eadAttention)                                                    'layer_normalization_13[0][0]'] 
                                                                                                  
 dropout_18 (Dropout)           (None, 4097, 64)     0           ['multi_head_attention_6[0][0]'] 
                                                                                                  
 add_12 (Add)                   (None, 4097, 64)     0           ['add_11[0][0]',                 
                                                                  'dropout_18[0][0]']             
                                                                                                  
 layer_normalization_14 (LayerN  (None, 4097, 64)    128         ['add_12[0][0]']                 
 ormalization)                                                                                    
                                                                                                  
 dense_13 (Dense)               (None, 4097, 128)    8320        ['layer_normalization_14[0][0]'] 
                                                                                                  
 dropout_19 (Dropout)           (None, 4097, 128)    0           ['dense_13[0][0]']               
                                                                                                  
 dense_14 (Dense)               (None, 4097, 64)     8256        ['dropout_19[0][0]']             
                                                                                                  
 dropout_20 (Dropout)           (None, 4097, 64)     0           ['dense_14[0][0]']               
                                                                                                  
 add_13 (Add)                   (None, 4097, 64)     0           ['add_12[0][0]',                 
                                                                  'dropout_20[0][0]']             
                                                                                                  
 layer_normalization_15 (LayerN  (None, 4097, 64)    128         ['add_13[0][0]']                 
 ormalization)                                                                                    
                                                                                                  
 multi_head_attention_7 (MultiH  (None, 4097, 64)    16640       ['layer_normalization_15[0][0]', 
 eadAttention)                                                    'layer_normalization_15[0][0]'] 
                                                                                                  
 dropout_21 (Dropout)           (None, 4097, 64)     0           ['multi_head_attention_7[0][0]'] 
                                                                                                  
 add_14 (Add)                   (None, 4097, 64)     0           ['add_13[0][0]',                 
                                                                  'dropout_21[0][0]']             
                                                                                                  
 layer_normalization_16 (LayerN  (None, 4097, 64)    128         ['add_14[0][0]']                 
 ormalization)                                                                                    
                                                                                                  
 dense_15 (Dense)               (None, 4097, 128)    8320        ['layer_normalization_16[0][0]'] 
                                                                                                  
 dropout_22 (Dropout)           (None, 4097, 128)    0           ['dense_15[0][0]']               
                                                                                                  
 dense_16 (Dense)               (None, 4097, 64)     8256        ['dropout_22[0][0]']             
                                                                                                  
 dropout_23 (Dropout)           (None, 4097, 64)     0           ['dense_16[0][0]']               
                                                                                                  
 add_15 (Add)                   (None, 4097, 64)     0           ['add_14[0][0]',                 
                                                                  'dropout_23[0][0]']             
                                                                                                  
 layer_normalization_17 (LayerN  (None, 4097, 64)    128         ['add_15[0][0]']                 
 ormalization)                                                                                    
                                                                                                  
 tf.__operators__.getitem_1 (Sl  (None, 64)          0           ['layer_normalization_17[0][0]'] 
 icingOpLambda)                                                                                   
                                                                                                  
 dense_17 (Dense)               (None, 2)            130         ['tf.__operators__.getitem_1[0][0
                                                                 ]']                              
                                                                                                  
==================================================================================================
Total params: 429,250
Trainable params: 429,250
Non-trainable params: 0
…
